layer_1_weight.npy (npy, 896 bytes, 1 tensors)

array f4 [6, 32]
00000000: 8866 333d 80c5 86be ed7e a53e 5d35 7cbe
00000010: 0a12 523e 664b 88be 74e2 0cbe 4c17 8f3d
00000020: 80d2 7bbc a9f4 963e 863c 443e 8874 bfbd
00000030: 7894 783d 6492 e93d 1c9b a33d 58e3 c53d
00000040: b419 e23d ecb0 a2be f88d b7be 2890 81bd
00000050: 0054 1a3d 868f 72be e2a8 57be f9be b43e
00000060: 883a 38bd 74c6 b9be 18fa b1be de04 6e3e
00000070: a246 163e 603f 89be 695f 8b3e 9b3d 34be
00000080: fa6e 1e3e ae11 61be 75b8 a23e 2e5e 3dbe
00000090: 9452 ab3d 36b0 09be 505d 2fbd b417 903d
000000a0: 6f9a 923e 8c9b 9cbe ebff 803e fa63 36be
000000b0: 68b0 5c3d 80d9 c7be 7e83 7a3e df71 9c3e
000000c0: 00f5 ab3d 1cab 8fbd bf2a a6be 2888 0e3d
000000d0: 540a 96be c842 ab3d f2ed 0e3e dcb4 bf3d
000000e0: ef46 70be e012 c3bd 6400 7dbe 9f48 853e
000000f0: b87c 193d b49d 88be 7d85 c73e 329c a5be
00000100: b839 a9be da4b 2c3e e5e9 ba3e ca33 0b3e
00000110: e299 8dbe 2eed 693e b8f6 e9bd c0d2 153d
00000120: 20dd 6f3c 9884 65bd 60f4 b9be d0aa acbe
00000130: 20ee 3f3d 81f2 9dbe 3bfb 76be e110 923e
00000140: 21b1 bebe 2fa9 983e fcb3 d7bd d107 33be
00000150: c347 4ebe c96a 48be 3f4e 84be 88eb c2bd
00000160: 3645 a4be 4ae1 c7be 0079 d2bc 70a5 85bc
00000170: 35f5 52be 783a 713d fc57 813d 2941 833e
00000180: 6abb 3c3e d449 80bd 607e 89bd ceb0 0d3e
00000190: 2b44 ac3e 91d8 b43e 548f cabe 06b1 aabe
000001a0: 2b66 a43e 1108 ad3e d872 b1be 283d b3bd
000001b0: 4898 5a3d 495d 8b3e c015 bc3b 714b 823e
000001c0: 2b69 923e c1b5 893e 6d2c b03e 007c 00bb
000001d0: 7eb5 413e f12d 973e ee8c 7b3e 0abc 623e
000001e0: 2f35 51be c49b abbe 327a 6fbe 8e0d 073e
000001f0: 94cc 9f3d f17c b13e 753c 96be ea72 413e
00000200: 8ce3 a4be 7c65 bf3d d5f4 3bbe 320d 1f3e
00000210: 74f0 74be b871 5bbd 69ef 8f3e 40dc 8dbd
00000220: f319 933e c4bf 9c3d 8080 c6bd 53bf 963e
00000230: cf23 bd3e 8640 433e 116a a63e f019 abbc
00000240: 4226 04be a466 12be 0016 afbe 1c44 b8be
00000250: a619 183e 4e61 72be 7fa5 c53e d086 4a3d
00000260: 89c8 65be 9a0c 353e 32fc 80be c48f e1bd
00000270: 77f1 833e c0c4 0abe 40ed 983c e3e4 b13e
00000280: b24f acbe 5060 f5bd 6c54 3dbe fa0c 85be
00000290: 6ed9 88be f19b c03e b67e 3b3e 320e 663e
000002a0: f0ad ffbd 3a28 a7be 9d47 c2be 86fa c4be
000002b0: 2813 afbe 2292 2e3e fec8 113e 2b80 9b3e
000002c0: 2e51 043e 5419 c33d 5cd9 e93d 8c9d 9abe
000002d0: 8e94 773e f6bf 95be 2132 b73e 82bc 06be
000002e0: c050 20be bec2 4b3e 75d6 a63e 6189 a93e
000002f0: 2039 8b3d b455 47be 32fb 193e 2fbe b9be
0.043798953 -0.26322556 0.323234 -0.24629731 0.20514694 -0.26620024 -0.1375826 0.069868654
-0.015370011 0.29483536 0.19163713 -0.093483984 0.060688466 0.11404875 0.07988569 0.09662503
0.11040059 -0.31775606 -0.358505 -0.06326324 0.037677765 -0.23687562 -0.21060517 0.3530195
-0.044977695 -0.3628422 -0.3476112 0.23244044 0.14675382 -0.26806164 0.2722123 -0.17601626
0.15472022 -0.219794 0.31781355 -0.18492958 0.0836536 -0.13446125 -0.0428136 0.07035771
0.28633448 -0.30587423 0.2519525 -0.17811576 0.05387917 -0.39033127 0.24464223 0.30555627
0.083963394 -0.070150584 -0.32454488 0.034797817 -0.29304755 0.08362347 0.13957956 0.09360668
-0.23464559 -0.095250845 -0.2470718 0.26031968 0.037472457 -0.26682818 0.3896903 -0.3234573
-0.33051848 0.1682581 0.36506572 0.13593975 -0.27656466 0.22844383 -0.11424011 0.03657794
0.014640123 -0.056034654 -0.36319256 -0.3372407 0.046857953 -0.30849078 -0.24119274 0.28528503
-0.37244514 0.29816577 -0.10532376 -0.1748345 -0.20144562 -0.19571985 -0.25840947 -0.0951758
-0.32084054 -0.3903907 -0.025692463 -0.016314238 -0.20601352 0.05889365 0.0631561 0.2563565
0.18430868 -0.062640816 -0.06713557 0.13836977 0.33645758 0.35321477 -0.39562476 -0.33338183
0.32109198 0.33795217 -0.3465793 -0.08751899 0.053367883 0.27219608 0.0057398975 0.25448182
0.28595862 0.2689648 0.34408894 -0.001960516 0.1891689 0.29527238 0.24565479 0.22142044
-0.20430444 -0.33517277 -0.23386458 0.13188764 0.07802692 0.34665635 -0.29343 0.18891492
-0.32204854 0.093455285 -0.18355115 0.15532377 -0.2391985 -0.053575248 0.28112343 -0.06926775
0.28730735 0.07653764 -0.09692478 0.29442844 0.36941382 0.19067582 0.32502797 -0.020886391
-0.12905219 -0.14296967 -0.34196472 -0.35989463 0.14853534 -0.23669931 0.38602826 0.049444973
-0.2243978 0.17680588 -0.2519241 -0.11013749 0.2577016 -0.13551617 0.018667817 0.3474494
-0.33654553 -0.11981261 -0.18489236 -0.25986463 -0.26728386 0.37618974 0.18310055 0.22466353
-0.12484348 -0.32647878 -0.37945262 -0.38472384 -0.34194303 0.17047933 0.14236829 0.30371222
0.12921593 0.09526315 0.11418411 -0.30198324 0.24177763 -0.29248017 0.35780433 -0.13157848
-0.15655804 0.19898507 0.32585493 0.33112624 0.06798005 -0.19466287 0.1503723 -0.3627791
